…
rSequenceClassification from the checkpoint of a model that you expect to be exactly identical (initializing a BertForSequenceClassification model from a BertForSequenceClassification model).\nSome weights of BertForSequenceClassification were not initialized from the model checkpoint at klue/bert-base and are newly initialized: ['classifier.weight', 'classifier.bias']\nYou should probably TRAIN this model on a down-stream task to be able to use it for predictions and inference.\n\n\nBertForSequenceClassification(\n  (bert): BertModel(\n    (embeddings): BertEmbeddings(\n      (word_embeddings): Embedding(32000, 768, padding_idx=0)\n      (position_embeddings): Embedding(512, 768)\n      (token_type_embeddings): Embedding(2, 768)\n      (LayerNorm): LayerNorm((768,), eps=1e-12, elementwise_affine=True)\n      (dropout): Dropout(p=0.1, inplace=False)\n    )\n    (encoder): BertEncoder(\n      (layer): ModuleList(\n        (0-11): 12 x BertLayer(\n          (attention): BertAttention(\n            (self): BertSelfAttention(\n              (query): Linear(in_features=768, out_features=768, bias=True)\n              (key): Linear(in_features=768, out_features=768, bias=True)\n              (value): Linear(in_features=768, out_features=768, bias=True)\n              (dropout): Dropout(p=0.1, inplace=False)\n            )\n            (output): BertSelfOutput(\n              (dense): Linear(in_features=768, out_features=768, bias=True)\n              (LayerNorm): LayerNorm((768,), eps=1e-12, elementwise_affine=True)\n              (dropout): Dropout(p=0.1, inplace=False)\n            )\n          )\n          (intermediate): BertIntermediate(\n            (dense): Linear(in_features=768, out_features=3072, bias=True)\n          )\n          (output): BertOutput(\n            (dense): Linear(in_features=3072, out_features=768, bias=True)\n            (LayerNorm): LayerNorm((768,), eps=1e-12, elementwise_affine=True)\n            (dropout): Dropout(p=0.1, inplace=False)\n          )\n        )\n      )\n    )\n    (pooler): BertPooler(\n      (dense): Linear(in_features=768, out_features=768, bias=True)\n      (activation): Tanh()\n    )\n  )\n  (dropout): Dropout(p=0.1, inplace=False)\n  (classifier): Linear(in_features=768, out_features=2, bias=True)\n)\n\n\n- 클래스가 잘 설정되었는지 확인\n\nmodel.config.id2label\n\n{0: 'LABEL_0', 1: 'LABEL_1'}"
  },
  {
    "objectID": "posts/Based_on_Encoder.html#prediction",
    "href": "posts/Based_on_Encoder.html#prediction",
    "title": "Base on Encoder models",
    "section": "1-3. Prediction",
    "text": "1-3. Prediction\n\nwith torch.no_grad():\n    logits = model(**b
…
ng BertForTokenClassification from the checkpoint of a model that you expect to be exactly identical (initializing a BertForSequenceClassification model from a BertForSequenceClassification model).\nSome weights of BertForTokenClassification were not initialized from the model checkpoint at klue/bert-base and are newly initialized: ['classifier.weight', 'classifier.bias']\nYou should probably TRAIN this model on a down-stream task to be able to use it for predictions and inference.\n\n\nBertForTokenClassification(\n  (bert): BertModel(\n    (embeddings): BertEmbeddings(\n      (word_embeddings): Embedding(32000, 768, padding_idx=0)\n      (position_embeddings): Embedding(512, 768)\n      (token_type_embeddings): Embedding(2, 768)\n      (LayerNorm): LayerNorm((768,), eps=1e-12, elementwise_affine=True)\n      (dropout): Dropout(p=0.1, inplace=False)\n    )\n    (encoder): BertEncoder(\n      (layer): ModuleList(\n        (0-11): 12 x BertLayer(\n          (attention): BertAttention(\n            (self): BertSelfAttention(\n              (query): Linear(in_features=768, out_features=768, bias=True)\n              (key): Linear(in_features=768, out_features=768, bias=True)\n              (value): Linear(in_features=768, out_features=768, bias=True)\n              (dropout): Dropout(p=0.1, inplace=False)\n            )\n            (output): BertSelfOutput(\n              (dense): Linear(in_features=768, out_features=768, bias=True)\n              (LayerNorm): LayerNorm((768,), eps=1e-12, elementwise_affine=True)\n              (dropout): Dropout(p=0.1, inplace=False)\n            )\n          )\n          (intermediate): BertIntermediate(\n            (dense): Linear(in_features=768, out_features=3072, bias=True)\n          )\n          (output): BertOutput(\n            (dense): Linear(in_features=3072, out_features=768, bias=True)\n            (LayerNorm): LayerNorm((768,), eps=1e-12, elementwise_affine=True)\n            (dropout): Dropout(p=0.1, inplace=False)\n          )\n        )\n      )\n    )\n  )\n  (dropout): Dropout(p=0.1, inplace=False)\n  (classifier): Linear(in_features=768, out_features=2, bias=True)\n)\n\n\n- (classifier): Linear(in_features=768, out_features=2, bias=True)에서 out_features=2인 이유는 분류되는 클래스의 개수가 2개이기 때문이다. 만약 더 세분화하여 구분되어야한다먼 out_features=?? ??의 수가 더 늘어나야한다."
  },
  {
    "objectID": "posts/Based_on_Encoder.html#dataset-2",
    "href": "posts/Based_on_Encoder.html#dataset-2",
    "title": "Base on Encoder models",
    "section": "4-2. Dataset",
    "text": "4-2. Dataset\n\nfrom datasets import load_dataset\n\n
…
ializing BertForQuestionAnswering from the checkpoint of a model that you expect to be exactly identical (initializing a BertForSequenceClassification model from a BertForSequenceClassification model).\nSome weights of BertForQuestionAnswering were not initialized from the model checkpoint at klue/bert-base and are newly initialized: ['qa_outputs.weight', 'qa_outputs.bias']\nYou should probably TRAIN this model on a down-stream task to be able to use it for predictions and inference.\n\n\nBertForQuestionAnswering(\n  (bert): BertModel(\n    (embeddings): BertEmbeddings(\n      (word_embeddings): Embedding(32000, 768, padding_idx=0)\n      (position_embeddings): Embedding(512, 768)\n      (token_type_embeddings): Embedding(2, 768)\n      (LayerNorm): LayerNorm((768,), eps=1e-12, elementwise_affine=True)\n      (dropout): Dropout(p=0.1, inplace=False)\n    )\n    (encoder): BertEncoder(\n      (layer): ModuleList(\n        (0-11): 12 x BertLayer(\n          (attention): BertAttention(\n            (self): BertSelfAttention(\n              (query): Linear(in_features=768, out_features=768, bias=True)\n              (key): Linear(in_features=768, out_features=768, bias=True)\n              (value): Linear(in_features=768, out_features=768, bias=True)\n              (dropout): Dropout(p=0.1, inplace=False)\n            )\n            (output): BertSelfOutput(\n              (dense): Linear(in_features=768, out_features=768, bias=True)\n              (LayerNorm): LayerNorm((768,), eps=1e-12, elementwise_affine=True)\n              (dropout): Dropout(p=0.1, inplace=False)\n            )\n          )\n          (intermediate): BertIntermediate(\n            (dense): Linear(in_features=768, out_features=3072, bias=True)\n          )\n          (output): BertOutput(\n            (dense): Linear(in_features=3072, out_features=768, bias=True)\n            (LayerNorm): LayerNorm((768,), eps=1e-12, elementwise_affine=True)\n            (dropout): Dropout(p=0.1, inplace=False)\n          )\n        )\n      )\n    )\n  )\n  (qa_outputs): Linear(in_features=768, out_features=2, bias=True)\n)"
  },
  {
    "objectID": "posts/Based_on_Encoder.html#dataset-3",
    "href": "posts/Based_on_Encoder.html#dataset-3",
    "title": "Base on Encoder models",
    "section": "5-2. Dataset",
    "text": "5-2. Dataset\n\nfrom datasets import load_dataset\n\ndataset = load_dataset(\"klue\", \"mrc\")\nsample = dataset[\"train\"][0]\n\nprint(f\"내용 : {sampl
…
ctions in performance-critical operations.\nTo enable the following instructions: AVX2 FMA, in other operations, rebuild TensorFlow with the appropriate compiler flags.\n\n\n\n\n\nBartForConditionalGeneration(\n  (model): BartModel(\n    (shared): BartScaledWordEmbedding(30000, 768, padding_idx=3)\n    (encoder): BartEncoder(\n      (embed_tokens): BartScaledWordEmbedding(30000, 768, padding_idx=3)\n      (embed_positions): BartLearnedPositionalEmbedding(1028, 768)\n      (layers): ModuleList(\n        (0-5): 6 x BartEncoderLayer(\n          (self_attn): BartSdpaAttention(\n            (k_proj): Linear(in_features=768, out_features=768, bias=True)\n            (v_proj): Linear(in_features=768, out_features=768, bias=True)\n            (q_proj): Linear(in_features=768, out_features=768, bias=True)\n            (out_proj): Linear(in_features=768, out_features=768, bias=True)\n          )\n          (self_attn_layer_norm): LayerNorm((768,), eps=1e-05, elementwise_affine=True)\n          (activation_fn): GELUActivation()\n          (fc1): Linear(in_features=768, out_features=3072, bias=True)\n          (fc2): Linear(in_features=3072, out_features=768, bias=True)\n          (final_layer_norm): LayerNorm((768,), eps=1e-05, elementwise_affine=True)\n        )\n      )\n      (layernorm_embedding): LayerNorm((768,), eps=1e-05, elementwise_affine=True)\n    )\n    (decoder): BartDecoder(\n      (embed_tokens): BartScaledWordEmbedding(30000, 768, padding_idx=3)\n      (embed_positions): BartLearnedPositionalEmbedding(1028, 768)\n      (layers): ModuleList(\n        (0-5): 6 x BartDecoderLayer(\n          (self_attn): BartSdpaAttention(\n            (k_proj): Linear(in_features=768, out_features=768, bias=True)\n            (v_proj): Linear(in_features=768, out_features=768, bias=True)\n            (q_proj): Linear(in_features=768, out_features=768, bias=True)\n            (out_proj): Linear(in_features=768, out_features=768, bias=True)\n          )\n          (activation_fn): GELUActivation()\n          (self_attn_layer_norm): LayerNorm((768,), eps=1e-05, elementwise_affine=True)\n          (encoder_attn): BartSdpaAttention(\n            (k_proj): Linear(in_features=768, out_features=768, bias=True)\n            (v_proj): Linear(in_features=768, out_features=768, bias=True)\n            (q_proj): Linear(in_features=768, out_features=768, bias=True)\n            (out_proj): Linear(in_features=768, out_features=768, bias=True)\n          )\n          (encoder_attn_layer_norm): LayerNorm((768,), eps=1e-05, elementwise_affine=True)\n          (fc1): Linear(in_features=768, out_features=3072, bias=True)\n          (fc2): Linear(in_features=3072, out_features=768, bias=True)\n          (final_layer_norm): LayerNorm((768,), eps=1e-05, elementwise_affine=True)\n        )\n      )\n      (layernorm_embedding): LayerNorm((768,), eps=1e-05, elementwise_affine=True)\n    )\n  )\n  (lm_head): Linear(in_features=768, out_features=30000, bias=False)\n)"
  },
  {
    "objectID": "posts/Base_on_Enco_Deco.html#dataset",
    "href": "posts/Base_on_Enco_Deco.html#dataset",
    "title": "Base on Encoder-Decoder models",
    "section": "2-2. Dataset",
    "text": "2-2. Dataset\n유의점\n인코더-디코더 모델은 인코더에 들어가는 입력과 디코더에 들어가는 입력, 총 두 개 입력이 필요하고 이에 대한 정답이 따로 필요하다.\n필수로 인코더 입력, 디코더 입력, 디코더 정답 이렇게 세 가지 데이터 특성이 포
…
n_head.out_proj.bias', 'classification_head.out_proj.weight']\nYou should probably TRAIN this model on a down-stream task to be able to use it for predictions and inference.\n\n\nBartForSequenceClassification(\n  (model): BartModel(\n    (shared): BartScaledWordEmbedding(30000, 768, padding_idx=3)\n    (encoder): BartEncoder(\n      (embed_tokens): BartScaledWordEmbedding(30000, 768, padding_idx=3)\n      (embed_positions): BartLearnedPositionalEmbedding(1028, 768)\n      (layers): ModuleList(\n        (0-5): 6 x BartEncoderLayer(\n          (self_attn): BartSdpaAttention(\n            (k_proj): Linear(in_features=768, out_features=768, bias=True)\n            (v_proj): Linear(in_features=768, out_features=768, bias=True)\n            (q_proj): Linear(in_features=768, out_features=768, bias=True)\n            (out_proj): Linear(in_features=768, out_features=768, bias=True)\n          )\n          (self_attn_layer_norm): LayerNorm((768,), eps=1e-05, elementwise_affine=True)\n          (activation_fn): GELUActivation()\n          (fc1): Linear(in_features=768, out_features=3072, bias=True)\n          (fc2): Linear(in_features=3072, out_features=768, bias=True)\n          (final_layer_norm): LayerNorm((768,), eps=1e-05, elementwise_affine=True)\n        )\n      )\n      (layernorm_embedding): LayerNorm((768,), eps=1e-05, elementwise_affine=True)\n    )\n    (decoder): BartDecoder(\n      (embed_tokens): BartScaledWordEmbedding(30000, 768, padding_idx=3)\n      (embed_positions): BartLearnedPositionalEmbedding(1028, 768)\n      (layers): ModuleList(\n        (0-5): 6 x BartDecoderLayer(\n          (self_attn): BartSdpaAttention(\n            (k_proj): Linear(in_features=768, out_features=768, bias=True)\n            (v_proj): Linear(in_features=768, out_features=768, bias=True)\n            (q_proj): Linear(in_features=768, out_features=768, bias=True)\n            (out_proj): Linear(in_features=768, out_features=768, bias=True)\n          )\n          (activation_fn): GELUActivation()\n          (self_attn_layer_norm): LayerNorm((768,), eps=1e-05, elementwise_affine=True)\n          (encoder_attn): BartSdpaAttention(\n            (k_proj): Linear(in_features=768, out_features=768, bias=True)\n            (v_proj): Linear(in_features=768, out_features=768, bias=True)\n            (q_proj): Linear(in_features=768, out_features=768, bias=True)\n            (out_proj): Linear(in_features=768, out_features=768, bias=True)\n          )\n          (encoder_attn_layer_norm): LayerNorm((768,), eps=1e-05, elementwise_affine=True)\n          (fc1): Linear(in_features=768, out_features=3072, bias=True)\n          (fc2): Linear(in_features=3072, out_features=768, bias=True)\n          (final_layer_norm): LayerNorm((768,), eps=1e-05, elementwise_affine=True)\n        )\n      )\n      (layernorm_embedding): LayerNorm((768,), eps=1e-05, elementwise_affine=True)\n    )\n  )\n  (classification_head): BartClassificationHead(\n    (dense): Linear(in_features=768, out_features=768, bias=True)\n    (dropout): Dropout(p=0.1, inplace=False)\n    (out_proj): Linear(in_features=768, out_features=2, bias=True)\n  )\n)"
  },
  {
    "objectID": "posts/Base_on_Enco_Deco.html#dataset-1",
    "href": "posts/Base_on_Enco_Deco.html#dataset-1",
    "title": "Base on Encoder-Decoder models",
    "section": "3-2. Dataset",
    "text": "3-2. Dataset\n\nfrom datasets import load_dataset\n\ndataset = load_dataset(\"klue\", \"sts\")\n\ndef process_data(batch):\n  result = 
…
nd are newly initialized: ['qa_outputs.bias', 'qa_outputs.weight']\nYou should probably TRAIN this model on a down-stream task to be able to use it for predictions and inference.\n\n\nBartForQuestionAnswering(\n  (model): BartModel(\n    (shared): BartScaledWordEmbedding(30000, 768, padding_idx=3)\n    (encoder): BartEncoder(\n      (embed_tokens): BartScaledWordEmbedding(30000, 768, padding_idx=3)\n      (embed_positions): BartLearnedPositionalEmbedding(1028, 768)\n      (layers): ModuleList(\n        (0-5): 6 x BartEncoderLayer(\n          (self_attn): BartSdpaAttention(\n            (k_proj): Linear(in_features=768, out_features=768, bias=True)\n            (v_proj): Linear(in_features=768, out_features=768, bias=True)\n            (q_proj): Linear(in_features=768, out_features=768, bias=True)\n            (out_proj): Linear(in_features=768, out_features=768, bias=True)\n          )\n          (self_attn_layer_norm): LayerNorm((768,), eps=1e-05, elementwise_affine=True)\n          (activation_fn): GELUActivation()\n          (fc1): Linear(in_features=768, out_features=3072, bias=True)\n          (fc2): Linear(in_features=3072, out_features=768, bias=True)\n          (final_layer_norm): LayerNorm((768,), eps=1e-05, elementwise_affine=True)\n        )\n      )\n      (layernorm_embedding): LayerNorm((768,), eps=1e-05, elementwise_affine=True)\n    )\n    (decoder): BartDecoder(\n      (embed_tokens): BartScaledWordEmbedding(30000, 768, padding_idx=3)\n      (embed_positions): BartLearnedPositionalEmbedding(1028, 768)\n      (layers): ModuleList(\n        (0-5): 6 x BartDecoderLayer(\n          (self_attn): BartSdpaAttention(\n            (k_proj): Linear(in_features=768, out_features=768, bias=True)\n            (v_proj): Linear(in_features=768, out_features=768, bias=True)\n            (q_proj): Linear(in_features=768, out_features=768, bias=True)\n            (out_proj): Linear(in_features=768, out_features=768, bias=True)\n          )\n          (activation_fn): GELUActivation()\n          (self_attn_layer_norm): LayerNorm((768,), eps=1e-05, elementwise_affine=True)\n          (encoder_attn): BartSdpaAttention(\n            (k_proj): Linear(in_features=768, out_features=768, bias=True)\n            (v_proj): Linear(in_features=768, out_features=768, bias=True)\n            (q_proj): Linear(in_features=768, out_features=768, bias=True)\n            (out_proj): Linear(in_features=768, out_features=768, bias=True)\n          )\n          (encoder_attn_layer_norm): LayerNorm((768,), eps=1e-05, elementwise_affine=True)\n          (fc1): Linear(in_features=768, out_features=3072, bias=True)\n          (fc2): Linear(in_features=3072, out_features=768, bias=True)\n          (final_layer_norm): LayerNorm((768,), eps=1e-05, elementwise_affine=True)\n        )\n      )\n      (layernorm_embedding): LayerNorm((768,), eps=1e-05, elementwise_affine=True)\n    )\n  )\n  (qa_outputs): Linear(in_features=768, out_features=2, bias=True)\n)\n\n\n- out_features=2\n두 값만 출력하면 되기에 out_features = 2이다."
  },
  {
    "objectID": "posts/Base_on_Enco_Deco.html#dataset-2",
    "href": "posts/Base_on_Enco_Deco.html#dataset-2",
    "title": "Base on Encoder-Decoder models",
    "section": "4-1. Dataset",
    "text": "4-1. Dataset\n\nfrom datasets import load_dataset\n\ndataset = load_dataset(\"klue\
…
    "href": "posts/Based_on_Decoder.html#model",
    "title": "Base on Decoder models",
    "section": "2-1. model",
    "text": "2-1. model\n\nimport torch\nfrom transformers import AutoTokenizer, AutoModelForCausalLM\n\n\nmodel_name = \"skt/kogpt2-base-v2\"\ntokenizer = AutoTokenizer.from_pretrained(\n    model_name,\n    bos_token=\"&lt;/s&gt;\",\n    eos_token=\"&lt;/s&gt;\",\n    unk_token=\"&lt;unk&gt;\",\n    pad_token=\"&lt;pad&gt;\",\n    mask_token=\"&lt;mask&gt;\"\n)\nmodel = AutoModelForCausalLM.from_pretrained(model_name)\nmodel\n\nGPT2LMHeadModel(\n  (transformer): GPT2Model(\n    (wte): Embedding(51200, 768)\n    (wpe): Embedding(1024, 768)\n    (drop): Dropout(p=0.1, inplace=False)\n    (h): ModuleList(\n      (0-11): 12 x GPT2Block(\n        (ln_1): LayerNorm((768,), eps=1e-05, elementwise_affine=True)\n        (attn): GPT2Attention(\n          (c_attn): Conv1D()\n          (c_proj): Conv1D()\n          (attn_dropout): Dropout(p=0.1, inplace=False)\n          (resid_dropout): Dropout(p=0.1, inplace=False)\n        )\n        (ln_2): LayerNorm((768,), eps=1e-05, elementwise_affine=True)\n        (mlp): GPT2MLP(\n          (c_fc): Conv1D()\n          (c_proj): Conv1D()\n          (dropout): Dropout(p=0.1, inplace=False)\n        )\n      )\n    )\n    (ln_f): LayerNorm((768,), eps=1e-05, elementwise_affine=True)\n  )\n  (lm_head): Linear(in_features=768, out_features=51200, bias=False)\n)\n\n\n- 모델을 잘 살펴보면 첫 줄의 Embedding(51200, 768)과 마지막 줄의 (lm_head): Linear(in_features=768, out_features=51200, bias=False)에서 51200으로 숫자가 같은데 이게 우연이 아니다.\n! Embedding(vocab_size , Embedding_dim)으로 이루어지는데 51200개의 단어를 768 길이의 벡터에서 임베딩을 통해 단어를 숫자로 표현하겠다는 의미이다. Embedding_dim이 커질 수록 연산은 증가하지만 더 세심하게 단어들끼리의 차이를 둘 수 있다.\n위에서 말했듯이 출력 class는 vocab size와 같기에 그래서 51200의 수가 겹치는 것이다."
  },
  {
    "objectID": "posts/Based_on_Decoder.html#dataset",
    "href": "posts/Based_on_Decoder.html#dataset",
…
model).\n- This IS NOT expected if you are initializing GPT2ForSequenceClassification from the checkpoint of a model that you expect to be exactly identical (initializing a BertForSequenceClassification model from a BertForSequenceClassification model).\nSome weights of GPT2ForSequenceClassification were not initialized from the model checkpoint at skt/kogpt2-base-v2 and are newly initialized: ['score.weight']\nYou should probably TRAIN this model on a down-stream task to be able to use it for predictions and inference.\n\n\nGPT2ForSequenceClassification(\n  (transformer): GPT2Model(\n    (wte): Embedding(51200, 768)\n    (wpe): Embedding(1024, 768)\n    (drop): Dropout(p=0.1, inplace=False)\n    (h): ModuleList(\n      (0-11): 12 x GPT2Block(\n        (ln_1): LayerNorm((768,), eps=1e-05, elementwise_affine=True)\n        (attn): GPT2Attention(\n          (c_attn): Conv1D()\n          (c_proj): Conv1D()\n          (attn_dropout): Dropout(p=0.1, inplace=False)\n          (resid_dropout): Dropout(p=0.1, inplace=False)\n        )\n        (ln_2): LayerNorm((768,), eps=1e-05, elementwise_affine=True)\n        (mlp): GPT2MLP(\n          (c_fc): Conv1D()\n          (c_proj): Conv1D()\n          (dropout): Dropout(p=0.1, inplace=False)\n        )\n      )\n    )\n    (ln_f): LayerNorm((768,), eps=1e-05, elementwise_affine=True)\n  )\n  (score): Linear(in_features=768, out_features=2, bias=False)\n)\n\n\n- out_features = 2 \\(\\rightarrow\\) 이진분류"
  },
  {
    "objectID": "posts/Based_on_Decoder.html#dataset-1",
    "href": "posts/Based_on_Decoder.html#dataset-1",
    "title": "Base on Decoder models",
    "section": "3-2. Dataset",
    "text": "3-2. Dataset\n\nfrom datasets import load_dataset\n\ndataset = load_dataset(\"klue\", \"sts\")\n\ndef process_data(batch):\n  result = tokenizer(batch[\"sentence1\"], text_pair=batch[\"sentence2\"])\n  result[\"labels\"] = [x[\"binary-label\"] for x in batch[\"labels\"]]\n  return result\n\ndataset = dataset.map(process_data, batched=True, remove_columns=dataset[\"train\"].column_names)"
…
